lab/models/cnn/mask_recognition_21_08.pth (torch, 248199 bytes, 10 tensors)

conv1.weight f4 [6, 3, 5, 5]
0	0xbde38f14	-0.11111274
1	0xbd510f08	-0.051039726
2	0x3ce0f320	0.027459681
3	0xbd5eca72	-0.054392286
4	0x3d72b861	0.05925787
5	0xbc9caa85	-0.019124279
6	0xbae21eaa	-0.001725157
7	0xbd4c5c0f	-0.04989248
8	0x3dd07dbc	0.10180232
9	0xbdbffeb1	-0.093747504
10	0xbbe966cf	-0.0071228514
11	0xbe1a0d8f	-0.15044235
12	0xbda00a91	-0.078145154
13	0xbd2af019	-0.04173288
14	0xbdd80de8	-0.105495274
15	0xbe1e685f	-0.15469502
16	0xbd4abbc9	-0.049495492
17	0xbe12955a	-0.14314786
18	0xbd3508c7	-0.044197824
19	0xbde98c5c	-0.114037246
20	0xbe1b1ace	-0.15146944
21	0xbd8c5489	-0.06852061
22	0x3b2fd5cc	0.0026830314
23	0xbca05e80	-0.019576311
24	0xbe08e993	-0.13370351
25	0x3d28edb3	0.041242313
26	0x3d71b0f6	0.059006654
27	0x3e863ff4	0.26220667
28	0x3e927786	0.28606814
29	0x3e90d49d	0.2828721
30	0x3e09c62e	0.13454506
31	0x3dab4569	0.08362848
32	0x3e8cf8da	0.2753361
33	0x3e52a15f	0.2056937
34	0x3e173579	0.14766492
35	0x3e138295	0.14405282
36	0x3ddb1df4	0.106990725
37	0x3dfab832	0.12242164
38	0x3e6f370c	0.23360842
39	0x3e7f419a	0.24927369
40	0x3e335292	0.17511967
41	0x3e8cacb4	0.27475512
42	0x3e1f883e	0.15579316
43	0x3e22aade	0.15885493
44	0x3e90a82a	0.282533
45	0x3e37f6b5	0.17965205
46	0x3d8ca2ef	0.068670146
47	0x3e4f6c4e	0.20256159
48	0x3de798b1	0.113084204
49	0x3da7fd81	0.08202649
50	0x3deba478	0.11505979
51	0x3e04cb16	0.12968096
52	0x3e5c7427	0.21528684
53	0x3e0e2956	0.13882956
54	0x3dd3fd03	0.103509925
55	0x3d52098d	0.05127864
56	0x3e89f93b	0.2694796
57	0x3e28f00f	0.16497825
58	0x3e96f5dc	0.2948445
59	0x3e5e8033	0.21728592
60	0x3dc1f6c9	0.09470899
61	0x3e59c793	0.21267538
62	0x3e6efec6	0.23339376
63	0x3e9cbe1b	0.3061379
64	0x3e85e6ee	0.26152748
65	0x3e820dae	0.25401062
66	0x3e64b85d	0.22335954
67	0x3e5af754	0.2138341
68	0x3e8c0732	0.2734924
69	0x3e060760	0.13088751
70	0x3dbfcfd0	0.09365809
71	0x3df0348b	0.11728772
72	0x3e0d5361	0.13801338
73	0x3e337e07	0.17528544
74	0x3e4c5157	0.19952904
75	0xbd53cea1	-0.05171073
76	0xbdd41441	-0.103554256
77	0x3d86b013	0.06576552
78	0x3d3c94a6	0.0460402
79	0xbcf63d2a	-0.030058462
80	0x3ded5b2e	0.11589657
81	0x3d83a4eb	0.0642794
82	0xbd229e83	-0.03970195
83	0x3d3a09b5	0.045419414
84	0xbdf00d45	-0.11721281
85	0x3e119bc3	0.14219575
86	0x3dac14d8	0.08402413
87	0x3dec9136	0.11551134
88	0x3dfcc56b	0.12342342
89	0x3bd21a66	0.0064118383
90	0x3db97ea7	0.0905736
91	0xbd3a4161	-0.045472506
92	0xbd1a3c3e	-0.037655108
93	0x3dc8d334	0.09805909
94	0x3d8f233e	0.06989144
95	0xbdd8782f	-0.10569798
96	0xbe048e9e	-0.12945029
97	0xbdf56c98	-0.11983603
98	0xbce6718f	-0.02813032
99	0xba067a63	-0.00051299314
100	0xbdfa352d	-0.12217174
101	0xbdedd47a	-0.11612792
102	0xbd8e3302	-0.06943323
103	0xbd89157b	-0.0669355
104	0x3afeffd9	0.0019454911
105	0xbd296d73	-0.041364145
106	0xbdaf06e4	-0.08546236
107	0x3d9de83a	0.07710309
108	0xbc84e9b5	-0.016224721
109	0x3d20f6b8	0.03929779
110	0x3d9e88ce	0.07740937
111	0xbd55fd7a	-0.052243687
112	0xbc53e949	-0.0129340375
113	0x3d42e350	0.047580063
114	0xbd086668	-0.033300787
115	0x3dda6b50	0.106649995
116	0x3d1236ae	0.035696678
117	0xbc7336df	-0.014844625
118	0x3d9a5df1	0.07537449
119	0x3d22cbbd	0.03974508
120	0x3d030f72	0.03199715
121	0x3d1147f3	0.035469007
122	0xbd9cedfa	-0.07662578
123	0xbd40ec59	-0.0471004
124	0xbda0fc5e	-0.07860635
125	0xbd60f7ed	-0.05492394
126	0xbda65024	-0.08120754
127	0xbd866151	-0.065615304
128	0x3bf749c3	0.007546635
129	0x3db83baf	0.08995759
130	0xbc10b5cc	-0.008832406
131	0xbdb8ef9e	-0.09030078
132	0xbd925dc8	-0.071467936
133	0x3c8ed6fe	0.0174365
134	0xbdd53c79	-0.10411925
135	0x3e284506	0.1643258
136	0x3d1e9299	0.038714025
137	0xbdbb9ab8	-0.0916037
138	0xbcd221de	-0.025650915
139	0x3df11dd3	0.11773267
140	0x3da85809	0.082199164
141	0x3d2dc4ff	0.0424242
142	0x3db3769e	0.08762859
143	0x3c60bcc9	0.013716885
144	0x3c4c52b1	0.012470887
145	0xbd923e00	-0.07140732
146	0xbc8726b0	-0.01649794
147	0xbdb1216e	-0.08648954
148	0x3cee1aed	0.029065574
149	0x3dac9c7e	0.08428286
150	0xbc979976	-0.018505793
151	0x3bb92ab2	0.0056508416
152	0x3d5c19ba	0.053735472
153	0xbdc29c08	-0.09502417
154	0xbdc6fa18	-0.0971567
155	0xbdd5c523	-0.104379915
156	0xbd3b6c8b	-0.04575781
157	0xbddd4159	-0.1080348
158	0x3da2aca5	0.079430856
159	0x3dc2fd88	0.095210135
160	0x3d6a2f79	0.05717418
161	0x3dcba14a	0.09942873
162	0x3cd17403	0.025568014
163	0x3d091193	0.033464026
164	0xbd012042	-0.031524904
165	0xbdda8a26	-0.10670881
166	0xbd0d5a02	-0.034509666
167	0x3da0ec80	0.07857609
168	0xbd4d5266	-0.05012741
169	0x3c438eb2	0.011935877
170	0xbd62e911	-0.05539805
171	0xbd25801f	-0.04040539
172	0xbc597ec6	-0.013274854
173	0xbcdd063b	-0.02698051
174	0x3ab11a44	0.0013511856
175	0xbd691184	-0.05690147
176	0x3db55302	0.08853723
177	0xbdd46157	-0.103701286
178	0xb9272b57	-0.00015942506
179	0xbda10832	-0.07862891
180	0x3dcf1eb0	0.10113275
181	0x3ccbb837	0.024868114
182	0x3cffb548	0.031214371
183	0xbddad976	-0.10686009
184	0xbd2cef98	-0.042220682
185	0xbdaa3fe8	-0.083129704
186	0x3dbbb4a7	0.09165316
187	0xbba0398a	-0.0048896717
188	0x3cd8a4a8	0.026445702
189	0xbdbfc116	-0.09363
190	0xbd910b0a	-0.07082184
191	0xbddaef7f	-0.106902115
192	0xbd061af9	-0.032740567
193	0xbd5c6540	-0.053807497
194	0xbd546b7a	-0.05186031
195	0x3be3306d	0.006933263
196	0x3d6bb353	0.057544064
197	0xbd8f61a5	-0.07001046
198	0x3dae70d5	0.08517615
199	0xbd8c8a71	-0.06862343
200	0xbcfbde82	-0.030745748
201	0xbcd1a14a	-0.025589604
202	0xbcd8adfd	-0.026450152
203	0x3dc064da	0.09394236
204	0xbd460a85	-0.048349876
205	0xbda563aa	-0.0807565
206	0xbdbd72fe	-0.09250449
207	0x3de0f222	0.10983683
208	0xbda71ec5	-0.08160166
209	0xbd299d2b	-0.041409653
210	0xbd8d2264	-0.06891325
211	0xbd61cc8f	-0.055126723
212	0xbdd521d7	-0.10406845
213	0x3d07e355	0.033175785
214	0xbda8aa66	-0.08235626
215	0x3d899b94	0.06719127
216	0xbd297f86	-0.04138138
217	0xbdd4090a	-0.103532866
218	0x3d5ea578	0.054357022
219	0x3cb6df7c	0.022323363
220	0xbbe3525c	-0.0069373082
221	0xbd0dfdb1	-0.034665767
222	0xbdbf24b9	-0.09333176
223	0x3d02e118	0.031952947
224	0x3dd2805c	0.10278389
225	0x3e3e4e50	0.18584561
226	0x3e177226	0.14789638
227	0x3dd4ce5b	0.10390922
228	0x3dce7dac	0.10082564
229	0x3d97b876	0.0740823
230	0x3e19cff3	0.15020733
231	0x3da2f49c	0.07956812
232	0x3cf8cc72	0.030370925
233	0x3e0380ac	0.12842053
234	0x3c84841e	0.01617628
235	0x3e03e3fb	0.12879936
236	0x3cf9727e	0.030450102
237	0x3e10bbad	0.14134093
238	0x3d42f891	0.047600333
239	0x3e22f9e1	0.15915634
240	0x3d6381d8	0.05554375
241	0xbd107ada	-0.03527341
242	0xbc7916e3	-0.0152032105
243	0xbdf2e984	-0.11860946
244	0xbd8e2a26	-0.06941633
245	0xbe88f547	-0.26749632
246	0xbe995ab5	-0.29952016
247	0xbe32f53c	-0.17476362
248	0xbddd1e95	-0.10796849
249	0xbe36b76f	-0.17843412
250	0x3e0b4a79	0.13602628
251	0x3e82b2a2	0.2552691
252	0x3e7075bc	0.23482412
253	0x3e3dd30e	0.18537542
254	0x3e8d4371	0.27590516
255	0x3e4b6726	0.19863567

conv1.bias f4 [6]
0	0xbeb4bfc2	-0.3530255
1	0x3c582714	0.013192911
2	0x3c148862	0.009065719
3	0xbdd446b2	-0.103650466
4	0x3bc1ac0b	0.0059104017
5	0xbd74a35b	-0.0597261

conv2.weight f4 [16, 6, 5, 5]
0	0x3dd83886	0.10557656
1	0x3dc79c13	0.09746566
2	0xbcad10ff	-0.021126268
3	0x3c2385bd	0.009980616
4	0xbd40e373	-0.047091912
5	0xbd585c16	-0.052822195
6	0xbd6166c2	-0.055029638
7	0xbdafd6b6	-0.08585875
8	0xbd745e46	-0.05966022
9	0xbddc3160	-0.10751605
10	0xbe39e1fe	-0.18152615
11	0xbd419387	-0.047259834
12	0xbe2c63dc	-0.16834968
13	0xbe0ae18e	-0.13562605
14	0xbddd899a	-0.10817261
15	0xbe146a3f	-0.14493655
16	0xbe466592	-0.19374683
17	0xbe4722e4	-0.19446903
18	0xbe6e7bf0	-0.23289466
19	0xbe2fb437	-0.1715859
20	0xbda2dbeb	-0.07952102
21	0xbd66fde5	-0.056394476
22	0xbbc7ef22	-0.006101505
23	0xbc2481f0	-0.010040745
24	0xbe002ea3	-0.1251779
25	0xbd56396e	-0.052300863
26	0x3d264cd4	0.040600613
27	0xbd4ec0b0	-0.05047673
28	0xbd89d24a	-0.067295626
29	0xbd019ff7	-0.031646695
30	0xbbd065cf	-0.006359793
31	0xbd256f88	-0.040389568
32	0xbd8669eb	-0.06563171
33	0xbd4ebd6f	-0.050473627
34	0xbda6f5f2	-0.08152379
35	0x3d27f76c	0.041007444
36	0xbdca8fb1	-0.09890688
37	0xbd430c7c	-0.047619328
38	0x3cbd0cf8	0.023077473
39	0xbd4cfa4f	-0.0500434
40	0x3dda0af3	0.1064662
41	0x3cc17e54	0.023619808
42	0x3d4404b3	0.047856044
43	0x3d8e99d1	0.06962932
44	0xbce1f962	-0.027584735
45	0xbd31ed64	-0.043439284
46	0x3ceb4336	0.028718572
47	0x3d2ef8e9	0.042717848
48	0x3d8bc1cf	0.068240754
49	0x3c82d3ff	0.015970228
50	0xbda56c92	-0.08077349
51	0xbc961dcb	-0.018324753
52	0xbd96d071	-0.07363976
53	0xbd04b660	-0.03240049
54	0xbd948bb0	-0.07253206
55	0x394e1ee7	0.00019657203
56	0x3d66715f	0.056260463
57	0x3d1f28b8	0.03885719
58	0xbd12f2ce	-0.035876088
59	0x3d75ef0d	0.06004243
60	0xbd8bef6c	-0.068327755
61	0xbd9c880c	-0.076431364
62	0xbd8b2aff	-0.0679531
63	0x3cdb3bef	0.026761977
64	0x3ceeb69a	0.029139806
65	0xbcbff321	-0.023431363
66	0x3d9dbb92	0.07701792
67	0xbd94793e	-0.072496876
68	0x3d38c421	0.045108918
69	0xbd07590c	-0.033043906
70	0xbd9d6a87	-0.07686334
71	0x3d9ab307	0.07553678
72	0xbd11d3f9	-0.035602544
73	0x3c988bef	0.018621413
74	0xbd2b4d4a	-0.041821755
75	0x3dd03c6f	0.10167777
76	0x3e2e9554	0.17049152
77	0x3e17ef12	0.14837292
78	0x3d2cbdc1	0.04217315
79	0xbd4860b1	-0.048920337
80	0xbb613a02	-0.003436685
81	0x3d865781	0.06559659
82	0xbac641b1	-0.0015125779
83	0x3e1c31a7	0.15253316
84	0x3d63d190	0.055619776
85	0xbdbff059	-0.093720146
86	0xbd821ba4	-0.06352928
87	0xbd3dbe17	-0.046323862
88	0x3db3d5ca	0.087810114
89	0xbd8c9cc5	-0.06865839
90	0xbd99af4a	-0.07504137
91	0x3bacbae8	0.0052713044
92	0xbdb90c55	-0.09035555
93	0xbdd6014e	-0.104494676
94	0xbe3bab59	-0.18327083
95	0xbd8bd96d	-0.0682858
96	0x3c5970a3	0.013271484
97	0x396db232	0.00022668464
98	0xbd1ab7ca	-0.03777293
99	0xbd649b6d	-0.055812288
100	0x3c9aa7da	0.018878866
101	0x3e53f682	0.20699504
102	0x3e8955b6	0.26823205
103	0x3db7532f	0.08951413
104	0x3e0771b1	0.13226964
105	0x3d8310c4	0.06399682
106	0x3e49c70b	0.19704835
107	0x3e0b34ff	0.13594435
108	0x3e99db5c	0.3005017
109	0x3e42e333	0.19031982
110	0x3ba21e3a	0.004947451
111	0x3e1421e4	0.14466053
112	0x3e7612df	0.24030636
113	0x3e1caabf	0.1529951
114	0x3df524f0	0.11969936
115	0x3cecd692	0.028910909
116	0x3e1450a7	0.14483891
117	0x3d89a6c5	0.06721262
118	0x3dcc797f	0.09984111
119	0x3c4089be	0.01175159
120	0xbaf72290	-0.0018854905
121	0xbd0c032b	-0.03418271
122	0xbb9ab80d	-0.0047216476
123	0xbd6f4388	-0.058414012
124	0xbd4607c1	-0.04834724
125	0xbc8c81ce	-0.01715174
126	0xbb6dfa5e	-0.003631256
127	0xbd198e5d	-0.037489284
128	0xbd799d91	-0.060941283
129	0x3d8ea4d3	0.069650315
130	0x3c502dbb	0.0127062155
131	0x3d22a158	0.03970465
132	0xbd76f291	-0.060289923
133	0xbda8d7ba	-0.082442716
134	0x3d5135bb	0.051076632
135	0xbd1a0b44	-0.0376084
136	0xbd8efd6f	-0.06981932
137	0x3d84514e	0.0646082
138	0xbd446b63	-0.047953974
139	0xbd7ee370	-0.06222862
140	0xbbef6766	-0.007306027
141	0x3d3d8ab5	0.04627486
142	0xbd89a6b7	-0.067212515
143	0x3d5c553e	0.05379223
144	0x3da04872	0.07826318
145	0x3c53dfcc	0.012931775
146	0xbd4e30fc	-0.050339684
147	0xbd655fe5	-0.055999655
148	0xbd67d902	-0.05660344
149	0xbcea08d3	-0.02856866
150	0x3d206b3c	0.039164767
151	0xbc2eabfd	-0.010661122
152	0xbd11b6b9	-0.03557465
153	0x3ccd61b9	0.025071012
154	0xbd8f197e	-0.06987284
155	0x3bbf7410	0.005842693
156	0x3d082a3d	0.033243407
157	0x3c9ece7a	0.019385565
158	0xbd8131f2	-0.063083544
159	0x3cdaaa57	0.026692552
160	0xbd164cd7	-0.036694374
161	0xbd2154bf	-0.03938746
162	0x3cf0d9b1	0.029400678
163	0xbad6140e	-0.0016332881
164	0x3c7f05c0	0.015565336
165	0x3c328e56	0.010898193
166	0xbd6be127	-0.05758777
167	0x3d48642e	0.048923664
168	0xbcd3f5fd	-0.025874132
169	0x3d638f2f	0.055556472
170	0x3b9f3bdf	0.004859432
171	0xbd5344d7	-0.051579323
172	0xbd7167bf	-0.05893683
173	0xbbf1ebba	-0.007382837
174	0x3cde9f84	0.027175672
175	0xbd70351a	-0.05864439
176	0x3d7a2385	0.06106903
177	0x3cc6b33e	0.024255391
178	0xbca86fc5	-0.020561108
179	0x3ca8f46d	0.020624364
180	0xbda18808	-0.07887274
181	0xbbd5b425	-0.006521719
182	0x3d133ec5	0.035948534
183	0xbd421fbd	-0.04739355
184	0x3d972672	0.0738038
185	0xbd5774d2	-0.052601643
186	0xbb5666eb	-0.0032715152
187	0xbb853dc4	-0.004066201
188	0xba9e1a60	-0.0012062304
189	0xbc212306	-0.00983501
190	0xbd90f166	-0.07077293
191	0x3ca6072d	0.020267094
192	0x3cdc34d5	0.026880661
193	0x3d0dd15a	0.03462348
194	0x3ab5393b	0.001382626
195	0x3c3898c6	0.011266893
196	0x3c824057	0.01589982
197	0x3d14dca6	0.03634324
198	0x3c441340	0.01196748
199	0x3d22b13f	0.039719816
200	0x3d8ecf99	0.0697319
201	0xbd3cad57	-0.046063747
202	0x3cf0c9f3	0.029393172
203	0xbd333f87	-0.043761756
204	0x3d347b4f	0.04406291
205	0x3d7e5687	0.062094238
206	0x3d97b5b8	0.07407707
207	0x3d4aa30a	0.049471892
208	0xbd8216d7	-0.063520126
209	0x3d8e0416	0.06934373
210	0x3d813154	0.06308237
211	0xbd790242	-0.06079317
212	0x3d8cefcc	0.06881675
213	0x3ce4dcc7	0.027937306
214	0x3d976ee9	0.07394201
215	0xbda31d37	-0.07964557
216	0x3d6e5646	0.058187746
217	0x3d31cdaa	0.043409027
218	0x3cd09f42	0.025466565
219	0xbd9e7eff	-0.07739066
220	0x3d9a4789	0.075331755
221	0xbda315cb	-0.07963141
222	0xbc5fbf09	-0.013656386
223	0xbd89d47c	-0.06729981
224	0x3d6dbc09	0.058040652
225	0xbd8d6324	-0.06903675
226	0x3d9b00a9	0.07568485
227	0x3c648191	0.013946907
228	0x3c30cc3c	0.010790881
229	0xbd806dfc	-0.06270978
230	0x3c0c6a5e	0.008570282
231	0x3d389b59	0.045070026
232	0xbd5b56e0	-0.053549647
233	0x3bd8a928	0.006611962
234	0xbc5a93aa	-0.01334087
235	0xb9b64230	-0.0003476306
236	0xbca72985	-0.02040554
237	0x3bd13ce3	0.006385432
238	0xbcd2f4a7	-0.025751425
239	0xbc9840fb	-0.018585673
240	0x3bf6ec85	0.0075355195
241	0xbd8223c6	-0.063544795
242	0x3cc0d841	0.023540618
243	0x3bc13e36	0.0058973087
244	0xbd8dd1f5	-0.06924812
245	0xbd8d882e	-0.0691074
246	0xbd67eee5	-0.056624312
247	0xbd845106	-0.064607665
248	0x3d9194eb	0.07108482
249	0x3c804a7e	0.01566052
250	0xbd92636b	-0.07147869
251	0xba25aa70	-0.00063196477
252	0xbda05a83	-0.07829764
253	0x3cad4c19	0.02115445
254	0xbbd7fa4c	-0.006591117
255	0x3d80cc11	0.062889226

conv2.bias f4 [16]
0	0x3d8c0932	0.06837691
1	0x3d9b7908	0.07591444
2	0xbd5e18c4	-0.054222837
3	0xbdfcbc7f	-0.1234064
4	0xb911cb59	-0.0001390403
5	0xbd9a2e4d	-0.075283624
6	0xbce1fdaa	-0.027586777
7	0xbd29dc51	-0.041469876
8	0x3e0ef629	0.1396109
9	0xbdc0c2a5	-0.094121255
10	0x3ddad26a	0.106846645
11	0x3d810745	0.06300215
12	0x3bfb931d	0.0076774494
13	0xbc30db24	-0.010794435
14	0x3b85cf14	0.0040835235
15	0x3d2fe36c	0.042941496

fc1.weight f4 [120, 400]
0	0x3d6322a9	0.055452976
1	0x39403016	0.0001832846
2	0xbcf1c775	-0.029514054
3	0xbcd9c839	-0.026584731
4	0xbc2d9188	-0.010593779
5	0x3d7cfe0c	0.061765715
6	0x3d0c0adf	0.034190055
7	0x3d9dd857	0.07707279
8	0x3d9ac83a	0.075577214
9	0x3d00e75b	0.031470638
10	0x3d589e31	0.052885238
11	0x3d357d70	0.04430908
12	0x3d090054	0.03344758
13	0x3c3cec33	0.011530924
14	0xbd08bc6a	-0.03338281
15	0xbc9d6b3b	-0.01921617
16	0xbd1ffa26	-0.03905692
17	0x3a1d3bda	0.0005997993
18	0xbc2921e7	-0.010323024
19	0xbd1bab19	-0.03800497
20	0xbcb21b47	-0.021741522
21	0xbdbbaee2	-0.091642156
22	0xbdac3564	-0.08408621
23	0xbdf27de3	-0.11840417
24	0x3c40b2fc	0.011761423
25	0x3d1d2cc3	0.038372766
26	0x3cc58de6	0.024115514
27	0x3d2f3c85	0.042782325
28	0x3d08e0f2	0.03341765
29	0xba880ac2	-0.0010379183
30	0x3ce5505a	0.027992416
31	0xbc8dc594	-0.017306127
32	0x3c64a740	0.013955891
33	0x3d044743	0.032294523
34	0x3bcd3963	0.0062629445
35	0x3cb3f434	0.021967031
36	0xbc90d906	-0.01768161
37	0xbd45fe37	-0.04833814
38	0x3d27781b	0.040886026
39	0x3d20e82e	0.039283924
40	0xbc587921	-0.013212473
41	0x3cf906df	0.030398784
42	0xbd0eb31c	-0.03483878
43	0xbb70876c	-0.0036701811
44	0x3c88071d	0.016604954
45	0xbca44b23	-0.02005536
46	0xbca05fd8	-0.019576952
47	0x3cf70d14	0.030157603
48	0xbcf6eff1	-0.03014371
49	0xbbc62c32	-0.006047749
50	0xbc929de5	-0.017897556
51	0xbd0adb42	-0.033900507
52	0xbdd32601	-0.10309983
53	0xbc4a8412	-0.01236059
54	0xbbfaed3e	-0.007657676
55	0xbcce77a9	-0.025203543
56	0xbcefc559	-0.029268907
57	0xbce28e0d	-0.027655626
58	0xbc54fb29	-0.012999334
59	0xbd5c53e4	-0.05379094
60	0x3d4d3d20	0.05010712
61	0xbd19b976	-0.037530385
62	0x3c99f414	0.018793143
63	0x3be4593a	0.0069686444
64	0x3bd2fd9c	0.006438924
65	0xbc84999a	-0.016186524
66	0x3d21f56f	0.039540704
67	0x3be52507	0.0069929394
68	0x3c8c15f9	0.017100321
69	0xbd0e2bb3	-0.034709644
70	0x3c8a507c	0.016884081
71	0xbc2631fe	-0.010143755
72	0xbd007db2	-0.031369872
73	0x3d342bad	0.043986965
74	0x3acc08d3	0.0015566595
75	0xbcecd22f	-0.028908817
76	0xbcde0bc5	-0.027105222
77	0x3c365629	0.011128941
78	0xbc020c4a	-0.0079375
79	0xbbc92993	-0.0061389892
80	0xbd36cbd8	-0.044627994
81	0xbcc04f97	-0.023475451
82	0x3c93cbd8	0.018041536
83	0xbce46a13	-0.027882611
84	0xbd076a51	-0.033060376
85	0x3c8a0bd2	0.01685134
86	0xbc9a898a	-0.018864412
87	0xbdbe54e8	-0.09293538
88	0x3d058e93	0.032606672
89	0xbcf00965	-0.029301355
90	0xbc900693	-0.01758126
91	0x3c36e34d	0.011162591
92	0xba2f1693	-0.0006679084
93	0x3bd48981	0.0064861183
94	0xbcdfa951	-0.027302416
95	0xbc86c404	-0.01645089
96	0xbccc8783	-0.02496696
97	0xbd54f643	-0.051992666
98	0xbca52b51	-0.020162256
99	0xbd53fbd0	-0.05175382
100	0xbc20abee	-0.009806616
101	0xbcc2608d	-0.02372768
102	0x3d462cd9	0.048382614
103	0xbcf781fb	-0.030213347
104	0x3cdefcc2	0.027220134
105	0xbd227699	-0.039663885
106	0xbcddfb57	-0.027097387
107	0xbbe6dd3e	-0.007045417
108	0x3d34fe39	0.044187758
109	0x3c8b0a94	0.016972817
110	0xba820c84	-0.0009921943
111	0x3d01c09c	0.031677827
112	0x3cfad144	0.030617364
113	0x3d09adda	0.033613063
114	0xbd0a068f	-0.03369766
115	0xbcfbe5e7	-0.030749274
116	0xbab32dda	-0.0013670281
117	0xbbfd04e1	-0.007721529
118	0xbcf1987d	-0.029491657
119	0x3ba157e0	0.0049238056
120	0x3d097ac1	0.033564333
121	0x3cb9030c	0.02258446
122	0xbd3bc44b	-0.045841496
123	0x3af486fc	0.0018655951
124	0xbc422879	-0.01185047
125	0x3c0a27f7	0.00843238
126	0xbcf021c4	-0.029312976
127	0xbd1f4e5c	-0.03889309
128	0x3d104ff5	0.035232503
129	0x3ce704fa	0.028200615
130	0xbc2820bb	-0.01026171
131	0x3d288301	0.04114056
132	0x3be61cca	0.007022475
133	0xbd40bdbe	-0.047055952
134	0xbd3edfac	-0.04660003
135	0xbb2e7c68	-0.0026624445
136	0xbc4d7a97	-0.012541435
137	0xbc214bd6	-0.009844741
138	0xbc4cd70d	-0.012502444
139	0xbd02a0db	-0.031891685
140	0xbcee7436	-0.029108148
141	0xbcf61100	-0.030037403
142	0x3bc9baaf	0.0061562876
143	0xbd4c91ad	-0.049943615
144	0xbccdb7b2	-0.025112007
145	0x3c863b36	0.016385656
146	0xbd370abe	-0.04468798
147	0xbcfcbd52	-0.030851994
148	0x3c05f45a	0.008175934
149	0x3b2f2cc7	0.002672957
150	0xbc005e36	-0.007834962
151	0xbd5909d1	-0.052987877
152	0x3c3c79b3	0.011503625
153	0x3c33672d	0.010949892
154	0x3d0c70a8	0.034287125
155	0xbccee700	-0.025256634
156	0xbc2b4996	-0.010454556
157	0x3cd0b7fe	0.02547836
158	0xbcabb0f5	-0.020958403
159	0xbbe8a269	-0.007099439
160	0x3c74d20e	0.014942659
161	0x3bf5d738	0.0075024627
162	0xbcb368a1	-0.021900477
163	0x3c9da40a	0.019243259
164	0xbc94cf0d	-0.018165136
165	0x3d5d9b45	0.054103155
166	0x3b5a014b	0.003326493
167	0xbd739f09	-0.05947784
168	0x3d4980e4	0.049195185
169	0x3cd137e4	0.025539346
170	0x3ccab663	0.024745172
171	0xbcb32e8e	-0.021872785
172	0x3d0b8a8e	0.034067683
173	0xb9115b72	-0.00013862344
174	0xbd5fc10b	-0.05462746
175	0x3d616dd7	0.055036392
176	0x3d74fdd5	0.059812386
177	0x3d5c4829	0.053779755
178	0xbd254788	-0.04035142
179	0xbd0910cc	-0.033463284
180	0x3c3d7333	0.01156311
181	0xbd843b96	-0.064566776
182	0xbd0849d5	-0.033273537
183	0xbd83279d	-0.0640404
184	0xbcf5d976	-0.03001092
185	0x3d092aaf	0.033487972
186	0xbd940ee7	-0.07229405
187	0x3c1ce215	0.0095753865
188	0xbd4010b1	-0.04689092
189	0x3b0cdec2	0.0021495079
190	0xbcd2135e	-0.025644
191	0x3d537c00	0.051631927
192	0x3d3d902b	0.046280067
193	0x3dc48e68	0.09597474
194	0x3d983c79	0.07433409
195	0x3d514e3d	0.051100004
196	0x3d6d3858	0.05791506
197	0x3d0f2b34	0.03495331
198	0x3d23256c	0.03983061
199	0x3d7ac45c	0.06122242
200	0xbd139517	-0.036030855
201	0x3d123530	0.035695255
202	0x3cb03083	0.021507507
203	0x3d49737d	0.049182404
204	0xbc802d12	-0.015646491
205	0xbba8f46c	-0.0051560905
206	0x3bf445de	0.007454618
207	0x3d867491	0.06565202
208	0x3d978497	0.073983364
209	0x3d2fecff	0.042950626
210	0x3d2877fb	0.041130047
211	0x3bafa97c	0.0053607803
212	0x3d8d2f56	0.06893794
213	0x3c9f269d	0.019427592
214	0x39cd9348	0.0003921038
215	0xbcf9ec85	-0.03050829
216	0xbda5441e	-0.08069633
217	0x3bbc6352	0.0057491446
218	0x3c2c2bc7	0.010508484
219	0xbd22438c	-0.0396152
220	0xbd03c8bb	-0.032173853
221	0xbd1f06d6	-0.03882488
222	0xbd867324	-0.0656493
223	0xbcc335c0	-0.023829341
224	0x3cd0319c	0.02541428
225	0xbd501920	-0.05080521
226	0xbc9de391	-0.019273551
227	0xbd3df1d3	-0.0463732
228	0x3d115e01	0.03549004
229	0xbb587601	-0.003302932
230	0xbd3ba3ad	-0.04581039
231	0x3b02b93d	0.0019946836
232	0xbbae1207	-0.0053122076
233	0xbd0f8bb2	-0.035045333
234	0xbd05f871	-0.032707635
235	0xbd1b40ee	-0.03790372
236	0x3ca1503c	0.019691579
237	0x3d00209b	0.031281095
238	0xbcc711bd	-0.02430045
239	0x3b2755b2	0.0025533256
240	0x3cc1e3c2	0.023668174
241	0xbd54228c	-0.05179076
242	0x3c87965a	0.016551185
243	0x3d2c8f58	0.04212889
244	0x3d1d36af	0.03838223
245	0xbd1bdd42	-0.038052805
246	0x3d29491e	0.041329496
247	0x3c6e6fc9	0.014553019
248	0x3be30a85	0.0069287443
249	0xbd236738	-0.03989336
250	0x3d70f669	0.058828745
251	0x3d47dc39	0.048794005
252	0x3d4925f8	0.049108475
253	0x3d65fcbe	0.056149237
254	0xbc492da6	-0.01227895
255	0xbccb5c5a	-0.02482431

fc1.bias f4 [120]
0	0xbd25fbd8	-0.04052338
1	0xbc962f93	-0.018333232
2	0x3cacaf5e	0.021079715
3	0xbd51c863	-0.051216494
4	0x3d32206a	0.043487944
5	0xbcc19825	-0.023632118
6	0xbd2384cb	-0.039921563
7	0x3d8be46f	0.068306796
8	0x3cde01f5	0.027100543
9	0xbcc43d70	-0.023955077
10	0x3cd786d6	0.026309412
11	0x3d8c0607	0.06837087
12	0x3d0a6a4e	0.033792786
13	0xbd8fc777	-0.07020467
14	0x3d060bf8	0.032726258
15	0x3cf72827	0.030170513
16	0x3c6fbe60	0.014632791
17	0xbbf11792	-0.007357546
18	0x3cc81054	0.024421848
19	0xb85efbe0	-5.31635e-05
20	0x3d4df579	0.05028293
21	0xbd675407	-0.05647662
22	0x3d080752	0.033210106
23	0x3b1604dd	0.0022891082
24	0xbcbee219	-0.023301171
25	0x3c9764d1	0.01848069
26	0x3d3ae854	0.04563172
27	0x3c41c85c	0.011827555
28	0x3d63bb5f	0.055598613
29	0x3b1d6c94	0.0024021016
30	0xbdd62ca5	-0.10457734
31	0xbc5ae0a1	-0.01335922
32	0x3d10bd4e	0.035336785
33	0x3c6ebe76	0.014571777
34	0x3c208ebc	0.0097996555
35	0xbc957fd4	-0.01824943
36	0xbd08f310	-0.033434927
37	0xbd52aae7	-0.051432516
38	0xbc903b7a	-0.017606486
39	0xbc37f1cc	-0.011227082
40	0xbd4aa1d2	-0.04947073
41	0x3d44e761	0.048072223
42	0xbbc11734	-0.0058926586
43	0xbc20a39e	-0.009804634
44	0xbc96549c	-0.018350892
45	0x3d8caede	0.06869291
46	0xbcccdc93	-0.025007522
47	0x3c4778f9	0.012174838
48	0xbb4583fc	-0.0030138483
49	0xbb586fcc	-0.003302562
50	0x3b68cd00	0.003552258
51	0xbd36ee20	-0.044660687
52	0xbd01fc32	-0.031734653
53	0x3d592cf1	0.053021375
54	0x3d91b4d7	0.071145706
55	0x3cd6c041	0.02621472
56	0xbd7f2d98	-0.06229934
57	0xbcd4419c	-0.025910191
58	0xbca404b0	-0.020021766
59	0x3d22cd71	0.039746705
60	0xbb662a60	-0.0035120472
61	0x3d51d49f	0.051228162
62	0x3b304ce7	0.0026901306
63	0x3d33cefc	0.043898568
64	0x3c15478d	0.009111297
65	0xbd0204bc	-0.031742796
66	0x3d8349c5	0.06410555
67	0x3d2d7b33	0.04235382
68	0x3d2a6af7	0.041605916
69	0x3d820e36	0.06350367
70	0xbce930b0	-0.028465599
71	0x3d10030b	0.035159152
72	0xbd538c12	-0.051647253
73	0x3c13a56a	0.009011606
74	0x3d07e7a3	0.03317989
75	0xbc92b920	-0.01791054
76	0x3ce76d5c	0.028250389
77	0xba785a84	-0.0009473937
78	0x3a851da4	0.0010155928
79	0x3b84ef1d	0.004056825
80	0xbc8cee57	-0.017203493
81	0x3c05115a	0.008121813
82	0xbd3d133e	-0.04616093
83	0x3c421190	0.011845008
84	0x3d6da3bd	0.05801748
85	0xbd5c84d4	-0.053837612
86	0xbdc013c9	-0.09378774
87	0xbcb749ca	-0.022374053
88	0x3d0f79b7	0.035028186
89	0xbd4306c9	-0.047613893
90	0x3ca6c865	0.020359227
91	0xbc95242b	-0.018205723
92	0xbca99782	-0.020702127
93	0xbce6f7b5	-0.028194288
94	0xbc6358e6	-0.0138761755
95	0x3d7b66df	0.061377402
96	0xbd469d86	-0.04849007
97	0xbb9bdf63	-0.0047568544
98	0xb92fce6c	-0.00016766199
99	0x3bdd22b0	0.00674852
100	0xbcebe16c	-0.028794013
101	0x3aea9d32	0.0017899631
102	0x3ba5db43	0.0050615384
103	0x3cb024b4	0.021501876
104	0x3c8f80eb	0.017517528
105	0xbd4ffdb2	-0.050779052
106	0xbd2b1fbe	-0.04177832
107	0x3d27ed26	0.040997647
108	0x3ca56b8c	0.020192884
109	0x3d4c626b	0.049898546
110	0x3d18195e	0.037133567
111	0xbc8b46f1	-0.017001601
112	0xbce6f410	-0.02819255
113	0xbcb0cd16	-0.021582168
114	0xba4cda43	-0.0007814506
115	0x3ca59918	0.020214602
116	0x3a54a6c0	0.0008112006
117	0x3da09683	0.07841208
118	0x3d1ae271	0.037813608
119	0x3d0d6027	0.034515526

fc2.weight f4 [84, 120]
0	0x3dfb9b80	0.12285519
1	0xbcd6431d	-0.026155049
2	0xbd321af6	-0.043482743
3	0x3c645c0a	0.013937959
4	0x3d8b82bc	0.06812045
5	0x3d595443	0.053058874
6	0xbd096458	-0.03354296
7	0x3c0423c4	0.008065168
8	0xbda6124a	-0.08108957
9	0xbe01d052	-0.12677124
10	0x3955141c	0.00020320754
11	0xbcbd0d4b	-0.023077628
12	0x3d611702	0.054953583
13	0x3cef2cec	0.029196225
14	0x3de9b390	0.11411202
15	0x3b1836c7	0.002322601
16	0xbd763a3b	-0.060114127
17	0x3d5aedd3	0.053449463
18	0x3d5b09b0	0.053476036
19	0x3d9e0baf	0.07717072
20	0x3dafa937	0.08577197
21	0xbdf71fad	-0.120665886
22	0xbdb68c32	-0.08913459
23	0xbd9fcab7	-0.07802337
24	0xbd8e3626	-0.06943922
25	0xbab0e854	-0.0013496974
26	0xbd050e69	-0.032484446
27	0xbcd2cc5c	-0.025732212
28	0x3d988d76	0.074488565
29	0xbd02412e	-0.03180044
30	0xbdaaaf34	-0.083341986
31	0xbc4e1fc7	-0.0125808185
32	0x3d96ed65	0.07369498
33	0xbc41dd9e	-0.011832623
34	0xbd0f0060	-0.034912467
35	0xbc30d88d	-0.010793817
36	0xbd3ad635	-0.04561444
37	0xbdd74992	-0.10512079
38	0x3e0a22b2	0.13489798
39	0x3db4282a	0.08796723
40	0x3d65fc00	0.05614853
41	0xbd834203	-0.06409075
42	0xba7d3f9d	-0.0009660663
43	0x3c3eb54f	0.011639907
44	0x3a94c8fc	0.0011351402
45	0x3db82013	0.08990493
46	0xbb91c5e2	-0.0044486383
47	0xbdc93411	-0.09824384
48	0x3d6a66cf	0.057226952
49	0x3d05c586	0.032659076
50	0xbd5150ca	-0.051102437
51	0xbbca4c5c	-0.0061736535
52	0x3da7429a	0.08167
53	0xbd890493	-0.066903256
54	0x3de3fb66	0.11131935
55	0x3c9b405e	0.018951591
56	0xbda4bab9	-0.08043427
57	0x3dabcb6f	0.08388411
58	0x3db0d7d0	0.08634913
59	0x3d8636a0	0.06553388
60	0xbc6e7064	-0.014553163
61	0xbc8df53f	-0.017328857
62	0x3d3b3e6d	0.04571383
63	0xbc565fec	-0.013084393
64	0xbd902bb0	-0.07039583
65	0xbd009e4c	-0.031400964
66	0x3db6102f	0.088898055
67	0x3d8b71e5	0.06808833
68	0xbdb462a1	-0.088078745
69	0xbcecdf27	-0.028915001
70	0x3d93c262	0.0721481
71	0xbd324c6f	-0.043529924
72	0x3ccb4ab1	0.02481589
73	0x3d8f00a1	0.06982542
74	0x3d3d58fd	0.046227444
75	0x3d2a4d28	0.04157749
76	0xb905c69c	-0.00012757856
77	0xbdb638e1	-0.088975675
78	0xbdb4e7ed	-0.08833299
79	0xbd1ebab8	-0.038752288
80	0x3d6e32bd	0.058153857
81	0xbdbd27aa	-0.09236081
82	0xbcd9a4e9	-0.026567893
83	0xbdc617a2	-0.09672476
84	0xbcdf3067	-0.02724476
85	0xbda37620	-0.07981515
86	0xbdc9e507	-0.098581366
87	0x3d81519b	0.06314393
88	0xbbec8b9f	-0.0072187926
89	0x3dbd689c	0.09248468
90	0xbc8ad1ff	-0.016945837
91	0x3c8ad850	0.016948849
92	0xbd9e1924	-0.07719639
93	0xbc326deb	-0.010890464
94	0xbdf779e6	-0.12083797
95	0x3d4b855b	0.049687725
96	0xbb113a73	-0.0022160083
97	0x3dafd92a	0.08586343
98	0xbd8eeba9	-0.06978542
99	0x3dcefd7f	0.10106944
100	0x3ad0b9a6	0.0015924468
101	0xbd84a1b8	-0.06476158
102	0xbd952856	-0.07283084
103	0x3d006f30	0.031356037
104	0x3b9e3b0b	0.004828816
105	0xbdb14f1e	-0.086576685
106	0xbd827f69	-0.06371958
107	0x3d07b668	0.03313294
108	0xbdaaf64f	-0.08347761
109	0xbd2924c7	-0.04129484
110	0xbbc0fc95	-0.005889485
111	0xbdfbe4c7	-0.12299495
112	0xbdb19fc6	-0.086730525
113	0x3cb970d2	0.022636805
114	0xbd746c5b	-0.05967365
115	0x3d75f043	0.060043585
116	0xbc812444	-0.015764363
117	0xbc84c5c4	-0.016207583
118	0x3df99625	0.12186841
119	0x3d6cf874	0.05785413
120	0x3d9b9bed	0.075981
121	0xbcf3ee18	-0.029776618
122	0x3da44aca	0.080220774
123	0xbd3c8d4b	-0.046033185
124	0x3bd37b9a	0.0064539434
125	0xbd97a043	-0.07403614
126	0xbdb037d0	-0.086043954
127	0xbd9c3c3a	-0.07628675
128	0xbc5f5733	-0.01363163
129	0x3d4e15c8	0.05031374
130	0x3c266d7c	0.010157939
131	0x3b4f3705	0.0031618488
132	0x3d70b7a7	0.058768895
133	0xbdb2a423	-0.08722713
134	0xbd0ad79c	-0.033897027
135	0x3c566efd	0.013087985
136	0xbcf13d57	-0.029448194
137	0x3d99ec6a	0.075157955
138	0xbd732b56	-0.0593675
139	0xbd96375e	-0.07334779
140	0xbccba3de	-0.024858411
141	0xbd1631e0	-0.03666866
142	0xbd9b3e26	-0.07580213
143	0x3c7a27d9	0.0152682895
144	0xbb507b56	-0.0031811795
145	0xbd4f85fd	-0.05066489
146	0x3d4b4229	0.049623642
147	0x3c8372fb	0.016046038
148	0x3d9ae979	0.075640626
149	0xbcdf13f8	-0.027231202
150	0x3cc4e66a	0.024035651
151	0xbd56bb9b	-0.05242501
152	0x3da71bb3	0.0815958
153	0xbd4084b4	-0.047001556
154	0xbd73ab93	-0.059489798
155	0x3da9ecc9	0.08297116
156	0x3d0cab8e	0.034343295
157	0xbd964556	-0.073374435
158	0xbc94aff6	-0.018150311
159	0xbc94d6d7	-0.01816885
160	0x3c6a4479	0.014298552
161	0x3d98183f	0.074264996
162	0x3d5f2e26	0.05448737
163	0xbd319a87	-0.04336026
164	0x3d8c351f	0.068460695
165	0x3cbf3f25	0.02334554
166	0xbcde174c	-0.027110718
167	0x3d40585f	0.046959277
168	0x3d372f1f	0.044722673
169	0x3cc5d267	0.02414818
170	0xbd97843d	-0.07398269
171	0xbdb1f8fb	-0.086900674
172	0xbd3506bc	-0.044195876
173	0x3d03917e	0.032121174
174	0x3d96fb78	0.073721826
175	0xbcf9429b	-0.030427268
176	0xbca40d98	-0.020026013
177	0xbd46710b	-0.04844765
178	0xbd2181f5	-0.039430577
179	0x3d68a61b	0.056799036
180	0xbcf34c17	-0.029699368
181	0x3cbf14e2	0.023325387
182	0x3bd5e873	0.0065279542
183	0xbdb04d61	-0.08608509
184	0xbce09e4a	-0.027419228
185	0x3db74658	0.08948964
186	0xbd1f99ad	-0.038964916
187	0xbd847f19	-0.064695545
188	0xbd976b79	-0.07393546
189	0x3d04e87f	0.032448288
190	0x3cab4942	0.020908955
191	0x3d391f94	0.04519613
192	0xbda2893b	-0.07936331
193	0xbd8b983e	-0.06816147
194	0x3bf96841	0.007611305
195	0x3cede85b	0.02904146
196	0x3c79a407	0.015236861
197	0xbd98203b	-0.074280225
198	0xbcce8f8a	-0.02521493
199	0xbcc56412	-0.024095569
200	0x3d9edb48	0.07756668
201	0x3d8dc41c	0.069221705
202	0x3d0deb05	0.03464796
203	0x3ca7c27b	0.020478478
204	0xbd1cd319	-0.038287256
205	0xbd90a152	-0.070620194
206	0xbd914115	-0.070924915
207	0x3daf5341	0.08560801
208	0xbd9e06a7	-0.077161126
209	0x3c926180	0.017868757
210	0xbd2622e4	-0.040560618
211	0x3da41449	0.080116816
212	0xbda1e862	-0.07905652
213	0xbd0f52e9	-0.03499118
214	0xbc3caa7b	-0.011515255
215	0xbb801879	-0.0039091674
216	0x3ccb5cc1	0.024824502
217	0xbd0c9424	-0.034320965
218	0xbd1594e5	-0.03651895
219	0x3dab81c4	0.0837436
220	0x3cd05e32	0.02543554
221	0x3d9618ed	0.07328973
222	0x3d411aff	0.047144886
223	0xbd6c928f	-0.057756957
224	0x3d044d80	0.032300472
225	0x3d9464cc	0.07245788
226	0x3d800002	0.062500015
227	0x3cc0a767	0.023517324
228	0xbda837eb	-0.082137905
229	0x3d31cf7c	0.043410763
230	0xbd2bb3af	-0.041919407
231	0xbd6c6e27	-0.057722237
232	0xbd1a3d83	-0.03765632
233	0xbcfa84e2	-0.030580942
234	0xbd9f9bc6	-0.07793383
235	0xbd650d10	-0.05592066
236	0x3d5aa88a	0.053383388
237	0x3d59497f	0.053048607
238	0xbd4f5356	-0.050616585
239	0x3d8fd438	0.070228994
240	0x3d85d0f9	0.06533999
241	0xbda8253d	-0.08210228
242	0x3cc1ca67	0.023656083
243	0x3daa9503	0.08329203
244	0xbd926127	-0.071474366
245	0xbdb3c5de	-0.087779745
246	0xbda9041b	-0.08252736
247	0xbd904daa	-0.07046063
248	0x3d835e4b	0.06414469
249	0x3d746265	0.05966415
250	0xbd0f07f9	-0.034919713
251	0x3c6339de	0.013868777
252	0x3d902587	0.07038408
253	0xbd1dd763	-0.038535487
254	0x3c74c61b	0.01493981
255	0xbd8525b6	-0.065013334

fc2.bias f4 [84]
0	0x3de8fba9	0.11376125
1	0xbd835d15	-0.06414238
2	0xbd823366	-0.0635746
3	0x3d6d399f	0.05791628
4	0x3d8f3bd5	0.06993834
5	0xbdb449bb	-0.088031255
6	0xbd3307b0	-0.043708503
7	0xbd47fb37	-0.04882356
8	0xbdb21f2a	-0.0869735
9	0xbd43ad92	-0.04777295
10	0x3da2d3fe	0.079505906
11	0xbd45160c	-0.04811673
12	0xbdc1361b	-0.09434148
13	0x3c3fa649	0.01169736
14	0x3d5f22b7	0.054476466
15	0x3cf0ecb4	0.029409744
16	0x3dba4ae1	0.09096313
17	0x3d48055c	0.048833236
18	0x3cfb9d9d	0.030714804
19	0x3e0e9bdc	0.13926643
20	0x3ddafcc7	0.10692745
21	0xbc4b73a7	-0.01241771
22	0x3df5a3d9	0.11994142
23	0x3de2001e	0.110351786
24	0xbd7b625c	-0.0613731
25	0xbccf6f0a	-0.025321502
26	0x3d6a52f4	0.057208017
27	0xbd809c6c	-0.06279835
28	0x3b6fb2e0	0.0036575124
29	0xbce748ff	-0.02823305
30	0xbbc7c3f4	-0.0060963575
31	0xbdbcc88c	-0.09217939
32	0x3d8fd6e5	0.0702341
33	0x3d2007a8	0.0390698
34	0xbd821329	-0.06351311
35	0x3dfd4414	0.123665005
36	0x3dbc51b6	0.091952726
37	0x3d38eb7d	0.045146454
38	0x3da21134	0.079134375
39	0xbd3ea814	-0.04654701
40	0x3d8d8703	0.06910517
41	0x3b897d45	0.0041958415
42	0xbd98a19f	-0.07452702
43	0xbde648b0	-0.11244333
44	0x3dc1bf9b	0.09460374
45	0x3d54d130	0.05195731
46	0xbdacffa7	-0.08447199
47	0x3d92c747	0.071669154
48	0x3d85670d	0.06513796
49	0x3d16cc65	0.03681602
50	0xbd59b7aa	-0.05315367
51	0x3d181929	0.03713337
52	0x3d465f1f	0.04843056
53	0x3e22aba3	0.15885787
54	0xbdb63837	-0.08897441
55	0xbd182334	-0.037142947
56	0xbd64e01d	-0.055877794
57	0x3d37a8f8	0.044838876
58	0xbd33a496	-0.043858133
59	0xbd2e8d80	-0.042615414
60	0xbd03ab75	-0.032145936
61	0xbd72a92d	-0.05924337
62	0xbc832ced	-0.016012633
63	0x3bbfade8	0.0058495887
64	0xbc3aa624	-0.01139215
65	0x3db857be	0.090011105
66	0x3c87fa28	0.016598776
67	0x3d4fc35f	0.05072343
68	0xbcc2867f	-0.023745773
69	0x3dc5f733	0.0966629
70	0x3d4a9ab0	0.049463928
71	0xbd781ca8	-0.060574204
72	0x3d8c6b25	0.06856374
73	0x3da5eb6f	0.08101546
74	0x3dbbb3dd	0.091651656
75	0x3daff617	0.0859186
76	0x3dddeac8	0.108357966
77	0xbdcc2794	-0.099684864
78	0x3d089a35	0.03335019
79	0xbd26e34f	-0.040744122
80	0xbd9aeb35	-0.075643934
81	0x3dc1cff1	0.0946349
82	0x3d9fdb02	0.07805444
83	0xbd9099f4	-0.07060614

fc3.weight f4 [2, 84]
0	0xbe6eeac2	-0.2333174
1	0xbd1a85b6	-0.037725173
2	0x3c92e3ab	0.017930826
3	0x3d407f73	0.046996545
4	0x3d38011f	0.044922944
5	0x3e242e44	0.16033274
6	0x3de184e3	0.11011674
7	0x3e11ed3d	0.14250655
8	0xbdc74546	-0.0973001
9	0x3dbd829c	0.092534274
10	0xbdd27f38	-0.10278171
11	0x3de97518	0.11399287
12	0xbd8da402	-0.06916048
13	0x3c8788b2	0.016544674
14	0xbe809f47	-0.2512152
15	0x3e10611f	0.14099549
16	0x3db157cc	0.08659324
17	0x3e6e9d31	0.23302151
18	0x3e873ba3	0.26412687
19	0xbecc0dd5	-0.39854303
20	0x3e3b7f37	0.18310247
21	0x3df2bd95	0.11852566
22	0xbe636cbe	-0.2220945
23	0xbe002132	-0.12512663
24	0x3c5af054	0.013362963
25	0xbe1fbf7a	-0.15600386
26	0xbe152b74	-0.14567357
27	0x3db3071c	0.087415904
28	0x3e68c075	0.22729667
29	0xbe393fcb	-0.18090741
30	0x3da9516f	0.08267485
31	0x3da8daf6	0.082448885
32	0xbdac0783	-0.0839987
33	0x3e476f26	0.19475994
34	0x3d8c65da	0.06855364
35	0xbea0c621	-0.3140116
36	0x3ed12683	0.40849695
37	0x3de81823	0.11332729
38	0x3ef17e2a	0.47166568
39	0xbdd9aaa1	-0.10628248
40	0xbd1c67b7	-0.038184848
41	0xbda6c774	-0.081435114
42	0x3dbefc1a	0.09325428
43	0x3e4e9997	0.20175777
44	0xbe2bdb9d	-0.16782995
45	0xbd10aaa8	-0.035319
46	0x3ddf279c	0.10896227
47	0x3e8880d7	0.26660797
48	0xbee4fb3b	-0.44722924
49	0xbe58fee8	-0.21190989
50	0x3e4c6ced	0.19963427
51	0xbeb6b615	-0.35685793
52	0xbe9ab952	-0.30219513
53	0xbea39bb9	-0.31954744
54	0x3e0e4e21	0.13896991
55	0x3e6f9ec8	0.23400414
56	0x3e4f0932	0.20218351
57	0xbcc4e2fa	-0.024034012
58	0x3e034e0f	0.12822746
59	0xbd5bc8cc	-0.05365829
60	0xbda6f685	-0.081524886
61	0xbd935608	-0.071941435
62	0xbd9394cb	-0.072061144
63	0xbe10bb42	-0.14133933
64	0xbe823de7	-0.25437853
65	0xbe7f2e01	-0.24919893
66	0x3e7a15f8	0.24422443
67	0xbe240728	-0.16018355
68	0xbe2570d8	-0.16156328
69	0xbecd2d68	-0.40073705
70	0x3e8c5daf	0.27415225
71	0x3cabe3da	0.020982672
72	0xbc3c7fce	-0.01150508
73	0xbc04476e	-0.008073671
74	0x3e3f4809	0.18679823
75	0x3ec6a1a6	0.38795203
76	0x3e976ba9	0.29574326
77	0x3e7b5508	0.24544156
78	0x3e5bf66b	0.2148072
79	0x3cd15334	0.02555237
80	0x3dbe65f0	0.09296787
81	0xbeabb015	-0.33532777
82	0x3e76164c	0.24031943
83	0x3e4cb54e	0.19991037
84	0x3eae6762	0.3406325
85	0xbddabe51	-0.10680831
86	0x3dd335a6	0.10312967
87	0x3da15041	0.07876635
88	0x3dd53ea1	0.10412336
89	0xbdc02917	-0.09382837
90	0xbe2b32b4	-0.1671856
91	0xbdfeb761	-0.124373205
92	0x3d3164f5	0.04330917
93	0xbdbbdcc7	-0.09172969
94	0x3dfd44f6	0.12366669
95	0xbd8797c6	-0.06620745
96	0x3dd6027b	0.10449692
97	0x3d51f337	0.05125734
98	0x3e1e5139	0.15460671
99	0x3d011f9f	0.031524297
100	0x3d046275	0.03232046
101	0xbea734ce	-0.32657474
102	0xbeae5404	-0.34048474
103	0x3e9b38a3	0.30316648
104	0xbe6949fd	-0.2278213
105	0xbdbe309b	-0.092866145
106	0x3e83fc2c	0.2577833
107	0x3e789cb5	0.24278529
108	0xbe1a8f6a	-0.1509377
109	0x3dc2a9e5	0.09505061
110	0x3dbc1d90	0.09185326
111	0xbe1ceeed	-0.15325518
112	0xbea2d840	-0.3180561
113	0x3e197c60	0.14988852
114	0xbe099ae3	-0.13437991
115	0xbd2e95ea	-0.042623438
116	0x3dfc5f01	0.12322808
117	0xbd3a99e4	-0.045556918
118	0xbd6c2949	-0.05765656
119	0x3e87c9d3	0.26521167
120	0xbed0a5b2	-0.40751415
121	0xbe858bc5	-0.26083198
122	0xbefd09a9	-0.49421433
123	0x3d689267	0.056780245
124	0xbd2270e5	-0.039658446
125	0xbdc99af1	-0.09844006
126	0xbcb81942	-0.022472981
127	0xbe62f3d4	-0.22163326
128	0x3ea0bb5c	0.31392944
129	0xbcb6a1c6	-0.022293936
130	0x3d92e5b9	0.07172722
131	0xbebff3b6	-0.37490624
132	0x3ee4dcea	0.44699794
133	0x3d6e263e	0.05814194
134	0xbe82efc2	-0.25573546
135	0x3eafaaea	0.34310085
136	0x3e2c92ec	0.16852921
137	0x3ebebea1	0.37254813
138	0xbe82e3bd	-0.25564376
139	0xbe8f3fc1	-0.27978328
140	0xbe5ae3b6	-0.21375927
141	0xbdcb657c	-0.09931466
142	0xbddc8f50	-0.10769522
143	0xbd8df8ef	-0.06932246
144	0x3dc21b59	0.094778724
145	0xbc591644	-0.013249937
146	0x3dab07b7	0.08351081
147	0xbd503c5f	-0.050838824
148	0x3e586334	0.21131593
149	0x3e9f59f2	0.3112331
150	0xbe05662f	-0.13027261
151	0x3d8182fd	0.06323812
152	0x3da8dc36	0.08245127
153	0x3ec4b77a	0.38421232
154	0xbea2b6d6	-0.31780118
155	0x3dc78747	0.09742599
156	0xbcd1deaa	-0.02561887
157	0x3c486891	0.012231962
158	0xbe8fa3a0	-0.28054523
159	0xbebf4ec1	-0.37364772
160	0xbe5f959e	-0.21834418
161	0xbe2e1818	-0.17001379
162	0xbdb2e2a9	-0.08734638
163	0x3dd37b88	0.10326296
164	0xbbdf7603	-0.006819488
165	0x3ea0cf7d	0.314083
166	0xbe6cc983	-0.23123746
167	0xbe53ed36	-0.20695958

fc3.bias f4 [2]
0	0x3d173a05	0.036920566
1	0x3dfedd01	0.12444497
